…
I1208 09:42:33.473920 22423 caffe.cpp:274] GPU device name: GeForce GTX TITAN X
I1208 09:42:33.770807 22423 net.cpp:58] Initializing net from parameters: 
name: "c3d_finetune"
state {
  phase: TEST
  level: 0
  stage: ""
}
layer {
  name: "data"
  type: "VideoData"
  top: "data"
  top: "label"
  include {
    phase: TEST
  }
  transform_param {
    mirror: false
    crop_size: 112
    mean_file: "./examples/c3d_finetune/ucf101_train_mean.binaryproto"
  }
  video_data_param {
    source: "./examples/c3d_finetune/test_01.lst"
    batch_size: 50
    shuffle: false
    new_length: 16
    new_height: 128
    new_width: 171
  }
}
layer {
  name: "conv1a"
  type: "Convolution"
  bottom: "data"
  top: "conv1a"
  param {
    lr_mult: 1
    decay_mult: 1
  }
  param {
    lr_mult: 2
    decay_mult: 0
  }
  convolution_param {
    num_output: 64
    pad: 1
    pad: 1
    pad: 1
    kernel_size: 3
    kernel_size: 3
    kernel_size: 3
    weight_filler {
      type: "gaussian"
      std: 0.01
    }
    bias_filler {
      type: "constant"
      value: 0
    }
  }
}
layer {
  name: "relu1a"
  type: "ReLU"
  bottom: "conv1a"
  top: "conv1a"
}
layer {
  name: "pool1"
  type: "Pooling"
  bottom: "conv1a"
  top: "pool1"
  pooling_param {
    pool: MAX
    kernel_size: 1
    kernel_size: 2
    kernel_size: 2
    stride: 1
    stride: 2
    stride: 2
  }
}
layer {
  name: "conv2a"
  type: "Convolution"
  bottom: "pool1"
  top: "conv2a"
  param {
    lr_mult: 1
    decay_mult: 1
  }
  param {
    lr_mult: 2
    decay_mult: 0
  }
  convolution_param {
    num_output: 128
    pad: 1
    pad: 1
    pad: 1
    kernel_size: 3
    kernel_size: 3
    kernel_size: 3
    weight_filler {
      type: "gaussian"
      std: 0.01
    }
    bias_filler {
      type: "constant"
      value: 1
    }
  }
}
layer {
  name: "relu2a"
  type: "ReLU"
  bottom: "conv2a"
  top: "conv2a"
}
layer {
  name: "pool2"
  type: "Pooling"
  bottom: "conv2a"
  top: "pool2"
  pooling_param {
    pool: MAX
    kernel_size: 2
    kernel_size: 2
    kernel_size: 2
    stride: 2
    stride: 2
    stride: 2
  }
}
layer {
  name: "conv3a"
  type: "Convolution"
  bottom: "pool2"
  top: "conv3a"
  param {
    lr_mult: 1
    decay_mult: 1
  }
  param {
    lr_mult: 2
    decay_mult: 0
  }
  convolution_param {
    num_output: 256
    pad: 1
    pad: 1
    pad: 1
    kernel_size: 3
    kernel_size: 3
    kernel_size: 3
    weight_filler {
      type: "gaussian"
      std: 0.01
    }
    bias_filler {
      type: "constant"
      value: 1
    }
  }
}
layer {
  name: "relu3a"
  type: "ReLU"
  bottom: "conv3a"
  top: "conv3a"
}
layer {
  name: "conv3b"
  type: "Convolution"
  bottom: "conv3a"
  top: "conv3b"
  param {
    lr_mult: 1
    decay_mult: 1
  }
  param {
    lr_mult: 2
    decay_mult: 0
  }
  convolution_param {
    num_output: 256
    pad: 1
    pad: 1
    pad: 1
    kernel_size: 3
    kernel_size: 3
    kernel_size: 3
    weight_filler {
      type: "gaussian"
      std: 0.01
    }
    bias_filler {
      type: "constant"
      value: 1
    }
  }
}
layer {
  name: "relu3b"
  type: "ReLU"
  bottom: "conv3b"
  top: "conv3b"
}
layer {
  name: "pool3"
  type: "Pooling"
  bottom: "conv3b"
  top: "pool3"
  pooling_param {
    pool: MAX
    kernel_size: 2
    kernel_size: 2
    kernel_size: 2
    stride: 2
    stride: 2
    stride: 2
  }
}
layer {
  name: "conv4a"
  type: "Convolution"
  bottom: "pool3"
  top: "conv4a"
  param {
    lr_mult: 1
    decay_mult: 1
  }
  param {
    lr_mult: 2
    decay_mult: 0
  }
  convolution_param {
    num_output: 512
    pad: 1
    pad: 1
    pad: 1
    kernel_size: 3
    kernel_size: 3
    kernel_size: 3
    weight_filler {
      type: "gaussian"
      std: 0.01
    }
    bias_filler {
      type: "constant"
      value: 1
    }
  }
}
layer {
  name: "relu4a"
  type: "ReLU"
  bottom: "conv4a"
  top: "conv4a"
}
layer {
  name: "conv4b"
  type: "Convolution"
  bottom: "conv4a"
  top: "conv4b"
  param {
    lr_mult: 1
    decay_mult: 1
  }
  param {
    lr_mult: 2
    decay_mult: 0
  }
  convolution_param {
    num_output: 512
    pad: 1
    pad: 1
    pad: 1
    kernel_size: 3
    kernel_size: 3
    kernel_size: 3
    weight_filler {
      type: "gaussian"
      std: 0.01
    }
    bias_filler {
      type: "constant"
      value: 1
    }
  }
}
layer {
  name: "relu4b"
  type: "ReLU"
  bottom: "conv4b"
  top: "conv4b"
}
layer {
  name: "pool4"
  type: "Pooling"
  bottom: "conv4b"
  top: "pool4"
  pooling_param {
    pool: MAX
    kernel_size: 2
    kernel_size: 2
    kernel_size: 2
    stride: 2
    stride: 2
    stride: 2
  }
}
layer {
  name: "conv5a"
  type: "Convolution"
  bottom: "pool4"
  top: "conv5a"
  param {
    lr_mult: 1
    decay_mult: 1
  }
  param {
    lr_mult: 2
    decay_mult: 0
  }
  convolution_param {
    num_output: 512
    pad: 1
    pad: 1
    pad: 1
    kernel_size: 3
    kernel_size: 3
    kernel_size: 3
    weight_filler {
      type: "gaussian"
      std: 0.01
    }
    bias_filler {
      type: "constant"
      value: 1
    }
  }
}
layer {
  name: "relu5a"
  type: "ReLU"
  bottom: "conv5a"
  top: "conv5a"
}
layer {
  name: "conv5b"
  type: "Convolution"
  bottom: "conv5a"
  top: "conv5b"
  param {
    lr_mult: 1
    decay_mult: 1
  }
  param {
    lr_mult: 2
    decay_mult: 0
  }
  convolution_param {
    num_output: 512
    pad: 1
    pad: 1
    pad: 1
    kernel_size: 3
    kernel_size: 3
    kernel_size: 3
    weight_filler {
      type: "gaussian"
      std: 0.01
    }
    bias_filler {
      type: "constant"
      value: 1
    }
  }
}
layer {
  name: "relu5b"
  type: "ReLU"
  bottom: "conv5b"
  top: "conv5b"
}
layer {
  name: "pool5"
  type: "Pooling"
  bottom: "conv5b"
  top: "pool5"
  pooling_param {
    pool: MAX
    kernel_size: 2
    kernel_size: 2
    kernel_size: 2
    stride: 2
    stride: 2
    stride: 2
  }
}
layer {
  name: "fc6"
  type: "InnerProduct"
  bottom: "pool5"
  top: "fc6"
  param {
    lr_mult: 1
    decay_mult: 1
  }
  param {
    lr_mult: 2
    decay_mult: 0
  }
  inner_product_param {
    num_output: 4096
    weight_filler {
      type: "gaussian"
      std: 0.005
    }
    bias_filler {
      type: "constant"
      value: 1
    }
  }
}
layer {
  name: "relu6"
  type: "ReLU"
  bottom: "fc6"
  top: "fc6"
}
layer {
  name: "drop6"
  type: "Dropout"
  bottom: "fc6"
  top: "fc6"
  dropout_param {
    dropout_ratio: 0.5
  }
}
layer {
  name: "fc7"
  type: "InnerProduct"
  bottom: "fc6"
  top: "fc7"
  param {
    lr_mult: 1
    decay_mult: 1
  }
  param {
    lr_mult: 2
    decay_mult: 0
  }
  inner_product_param {
    num_output: 4096
    weight_filler {
      type: "gaussian"
      std: 0.005
    }
    bias_filler {
      type: "constant"
      value: 1
    }
  }
}
layer {
  name: "relu7"
  type: "ReLU"
  bottom: "fc7"
  top: "fc7"
}
layer {
  name: "drop7"
  type: "Dropout"
  bottom: "fc7"
  top: "fc7"
  dropout_param {
    dropout_ratio: 0.5
  }
}
layer {
  name: "fc8"
  type: "InnerProduct"
  bottom: "fc7"
  top: "fc8"
  param {
    lr_mult: 1
    decay_mult: 1
  }
  param {
    lr_mult: 2
    decay_mult: 0
  }
  inner_product_param {
    num_output: 101
    weight_filler {
      type: "gaussian"
      std: 0.01
    }
    bias_filler {
      type: "constant"
      value: 0
    }
  }
}
layer {
  name: "prob"
  type: "Softmax"
  bottom: "fc8"
  top: "prob"
  include {
    phase: TEST
  }
}
layer {
  name: "accuracy"
  type: "Accuracy"
  bottom: "prob"
  bottom: "label"
  top: "accuracy/top-1"
  include {
    phase: TEST
  }
}
layer {
  name: "loss"
  type: "SoftmaxWithLoss"
  bottom: "fc8"
  bottom: "label"
  top: "loss"
}
I1208 09:42:33.771024 22423 layer_factory.hpp:77] Creating layer data
I1208 09:42:33.771066 22423 net.cpp:100] Creating Layer data
I1208 09:42:33.771075 22423 net.cpp:408] data -> data
I1208 09:42:33.771097 22423 net.cpp:408] data -> label
I1208 09:42:33.771116 22423 data_transformer.cpp:25] Loading mean file from: ./examples/c3d_finetune/ucf101_train_mean.binaryproto
I1208 09:42:33.789278 22423 video_data_layer.cpp:39] Opening file ./examples/c3d_finetune/test_01.lst
I1208 09:42:33.810221 22423 video_data_layer.cpp:58] A total of 41822 video chunks.
I1208 09:42:33.825655 22423 video_data_layer.cpp:98] output data size: 50,3,16,112,112
I1208 09:42:33.983680 22423 net.cpp:150] Setting up data
I1208 09:42:33.983711 22423 net.cpp:157] Top shape: 50 3 16 112 112 (30105600)
I1208 09:42:33.983717 22423 net.cpp:157] Top shape: 50 (50)
I1208 09:42:33.983721 22423 net.cpp:165] Memory required for data: 120422600
I1208 09:42:33.983731 22423 layer_factory.hpp:77] Creating layer label_data_1_split
I1208 09:42:33.983750 22423 net.cpp:100] Creating Layer label_data_1_split
I1208 09:42:33.983757 22423 net.cpp:434] label_data_1_split <- label
I1208 09:42:33.983767 22423 net.cpp:408] label_data_1_split -> label_data_1_split_0
I1208 09:42:33.983777 22423 net.cpp:408] label_data_1_split -> label_data_1_split_1
I1208 09:42:33.983863 22423 net.cpp:150] Setting up label_data_1_split
I1208 09:42:33.983872 22423 net.cpp:157] Top shape: 50 (50)
I1208 09:42:33.983876 22423 net.cpp:157] Top shape: 50 (50)
I1208 09:42:33.983880 22423 net.cpp:165] Memory required for data: 120423000
I1208 09:42:33.983885 22423 layer_factory.hpp:77] Creating layer conv1a
I1208 09:42:33.983901 22423 net.cpp:100] Creating Layer conv1a
I1208 09:42:33.983906 22423 net.cpp:434] conv1a <- data
I1208 09:42:33.983912 22423 net.cpp:408] conv1a -> conv1a
I1208 09:42:34.134286 22423 net.cpp:150] Setting up conv1a
I1208 09:42:34.134313 22423 net.cpp:157] Top shape: 50 64 16 112 112 (642252800)
I1208 09:42:34.134318 22423 net.cpp:165] Memory required for data: 2689434200
I1208 09:42:34.134335 22423 layer_factory.hpp:77] Creating layer relu1a
I1208 09:42:34.134346 22423 net.cpp:100] Creating Layer relu1a
I1208 09:42:34.134351 22423 net.cpp:434] relu1a <- conv1a
I1208 09:42:34.134357 22423 net.cpp:395] relu1a -> conv1a (in-place)
I1208 09:42:34.134644 22423 net.cpp:150] Setting up relu1a
I1208 09:42:34.134654 22423 net.cpp:157] Top shape: 50 64 16 112 112 (642252800)
I1208 09:42:34.134660 22423 net.cpp:165] Memory required for data: 5258445400
I1208 09:42:34.134665 22423 layer_factory.hpp:77] Creating layer pool1
I1208 09:42:34.134675 22423 net.cpp:100] Creating Layer pool1
I1208 09:42:34.134678 22423 net.cpp:434] pool1 <- conv1a
I1208 09:42:34.134685 22423 net.cpp:408] pool1 -> pool1
I1208 09:42:34.134857 22423 net.cpp:150] Setting up pool1
I1208 09:42:34.134867 22423 net.cpp:157] Top shape: 50 64 16 56 56 (160563200)
I1208 09:42:34.134871 22423 net.cpp:165] Memory required for data: 5900698200
I1208 09:42:34.134876 22423 layer_factory.hpp:77] Creating layer conv2a
I1208 09:42:34.134887 22423 net.cpp:100] Creating Layer conv2a
I1208 09:42:34.134891 22423 net.cpp:434] conv2a <- pool1
I1208 09:42:34.134897 22423 net.cpp:408] conv2a -> conv2a
I1208 09:42:34.141897 22423 net.cpp:150] Setting up conv2a
I1208 09:42:34.141911 22423 net.cpp:157] Top shape: 50 128 16 56 56 (321126400)
I1208 09:42:34.141916 22423 net.cpp:165] Memory required for data: 7185203800
I1208 09:42:34.141924 22423 layer_factory.hpp:77] Creating layer relu2a
I1208 09:42:34.141932 22423 net.cpp:100] Creating Layer relu2a
I1208 09:42:34.141935 22423 net.cpp:434] relu2a <- conv2a
I1208 09:42:34.141940 22423 net.cpp:395] relu2a -> conv2a (in-place)
I1208 09:42:34.142186 22423 net.cpp:150] Setting up relu2a
I1208 09:42:34.142199 22423 net.cpp:157] Top shape: 50 128 16 56 56 (321126400)
I1208 09:42:34.142202 22423 net.cpp:165] Memory required for data: 8469709400
I1208 09:42:34.142207 22423 layer_factory.hpp:77] Creating layer pool2
I1208 09:42:34.142215 22423 net.cpp:100] Creating Layer pool2
I1208 09:42:34.142218 22423 net.cpp:434] pool2 <- conv2a
I1208 09:42:34.142225 22423 net.cpp:408] pool2 -> pool2
I1208 09:42:34.142379 22423 net.cpp:150] Setting up pool2
I1208 09:42:34.142390 22423 net.cpp:157] Top shape: 50 128 8 28 28 (40140800)
I1208 09:42:34.142393 22423 net.cpp:165] Memory required for data: 8630272600
I1208 09:42:34.142397 22423 layer_factory.hpp:77] Creating layer conv3a
I1208 09:42:34.142407 22423 net.cpp:100] Creating Layer conv3a
I1208 09:42:34.142411 22423 net.cpp:434] conv3a <- pool2
I1208 09:42:34.142417 22423 net.cpp:408] conv3a -> conv3a
I1208 09:42:34.165767 22423 net.cpp:150] Setting up conv3a
I1208 09:42:34.165802 22423 net.cpp:157] Top shape: 50 256 8 28 28 (80281600)
I1208 09:42:34.165807 22423 net.cpp:165] Memory required for data: 8951399000
I1208 09:42:34.165817 22423 layer_factory.hpp:77] Creating layer relu3a
I1208 09:42:34.165823 22423 net.cpp:100] Creating Layer relu3a
I1208 09:42:34.165827 22423 net.cpp:434] relu3a <- conv3a
I1208 09:42:34.165832 22423 net.cpp:395] relu3a -> conv3a (in-place)
I1208 09:42:34.165974 22423 net.cpp:150] Setting up relu3a
I1208 09:42:34.165984 22423 net.cpp:157] Top shape: 50 256 8 28 28 (80281600)
I1208 09:42:34.165988 22423 net.cpp:165] Memory required for data: 9272525400
I1208 09:42:34.165993 22423 layer_factory.hpp:77] Creating layer conv3b
I1208 09:42:34.166003 22423 net.cpp:100] Creating Layer conv3b
I1208 09:42:34.166007 22423 net.cpp:434] conv3b <- conv3a
I1208 09:42:34.166013 22423 net.cpp:408] conv3b -> conv3b
I1208 09:42:34.211606 22423 net.cpp:150] Setting up conv3b
I1208 09:42:34.211632 22423 net.cpp:157] Top shape: 50 256 8 28 28 (80281600)
I1208 09:42:34.211635 22423 net.cpp:165] Memory required for data: 9593651800
I1208 09:42:34.211644 22423 layer_factory.hpp:77] Creating layer relu3b
I1208 09:42:34.211653 22423 net.cpp:100] Creating Layer relu3b
I1208 09:42:34.211658 22423 net.cpp:434] relu3b <- conv3b
I1208 09:42:34.211664 22423 net.cpp:395] relu3b -> conv3b (in-place)
I1208 09:42:34.211911 22423 net.cpp:150] Setting up relu3b
I1208 09:42:34.211925 22423 net.cpp:157] Top shape: 50 256 8 28 28 (80281600)
I1208 09:42:34.211928 22423 net.cpp:165] Memory required for data: 9914778200
I1208 09:42:34.211932 22423 layer_factory.hpp:77] Creating layer pool3
I1208 09:42:34.211941 22423 net.cpp:100] Creating Layer pool3
I1208 09:42:34.211946 22423 net.cpp:434] pool3 <- conv3b
I1208 09:42:34.211951 22423 net.cpp:408] pool3 -> pool3
I1208 09:42:34.212105 22423 net.cpp:150] Setting up pool3
I1208 09:42:34.212116 22423 net.cpp:157] Top shape: 50 256 4 14 14 (10035200)
I1208 09:42:34.212119 22423 net.cpp:165] Memory required for data: 9954919000
I1208 09:42:34.212123 22423 layer_factory.hpp:77] Creating layer conv4a
I1208 09:42:34.212133 22423 net.cpp:100] Creating Layer conv4a
I1208 09:42:34.212137 22423 net.cpp:434] conv4a <- pool3
I1208 09:42:34.212143 22423 net.cpp:408] conv4a -> conv4a
I1208 09:42:34.303534 22423 net.cpp:150] Setting up conv4a
I1208 09:42:34.303558 22423 net.cpp:157] Top shape: 50 512 4 14 14 (20070400)
I1208 09:42:34.303563 22423 net.cpp:165] Memory required for data: 10035200600
I1208 09:42:34.303576 22423 layer_factory.hpp:77] Creating layer relu4a
I1208 09:42:34.303586 22423 net.cpp:100] Creating Layer relu4a
I1208 09:42:34.303592 22423 net.cpp:434] relu4a <- conv4a
I1208 09:42:34.303598 22423 net.cpp:395] relu4a -> conv4a (in-place)
I1208 09:42:34.303864 22423 net.cpp:150] Setting up relu4a
I1208 09:42:34.303876 22423 net.cpp:157] Top shape: 50 512 4 14 14 (20070400)
I1208 09:42:34.303880 22423 net.cpp:165] Memory required for data: 10115482200
I1208 09:42:34.303884 22423 layer_factory.hpp:77] Creating layer conv4b
I1208 09:42:34.303896 22423 net.cpp:100] Creating Layer conv4b
I1208 09:42:34.303900 22423 net.cpp:434] conv4b <- conv4a
I1208 09:42:34.303906 22423 net.cpp:408] conv4b -> conv4b
I1208 09:42:34.484720 22423 net.cpp:150] Setting up conv4b
I1208 09:42:34.484746 22423 net.cpp:157] Top shape: 50 512 4 14 14 (20070400)
I1208 09:42:34.484750 22423 net.cpp:165] Memory required for data: 10195763800
I1208 09:42:34.484760 22423 layer_factory.hpp:77] Creating layer relu4b
I1208 09:42:34.484772 22423 net.cpp:100] Creating Layer relu4b
I1208 09:42:34.484779 22423 net.cpp:434] relu4b <- conv4b
I1208 09:42:34.484786 22423 net.cpp:395] relu4b -> conv4b (in-place)
I1208 09:42:34.485134 22423 net.cpp:150] Setting up relu4b
I1208 09:42:34.485146 22423 net.cpp:157] Top shape: 50 512 4 14 14 (20070400)
I1208 09:42:34.485149 22423 net.cpp:165] Memory required for data: 10276045400
I1208 09:42:34.485153 22423 layer_factory.hpp:77] Creating layer pool4
I1208 09:42:34.485162 22423 net.cpp:100] Creating Layer pool4
I1208 09:42:34.485167 22423 net.cpp:434] pool4 <- conv4b
I1208 09:42:34.485193 22423 net.cpp:408] pool4 -> pool4
I1208 09:42:34.485368 22423 net.cpp:150] Setting up pool4
I1208 09:42:34.485378 22423 net.cpp:157] Top shape: 50 512 2 7 7 (2508800)
I1208 09:42:34.485383 22423 net.cpp:165] Memory required for data: 10286080600
I1208 09:42:34.485388 22423 layer_factory.hpp:77] Creating layer conv5a
I1208 09:42:34.485399 22423 net.cpp:100] Creating Layer conv5a
I1208 09:42:34.485402 22423 net.cpp:434] conv5a <- pool4
I1208 09:42:34.485409 22423 net.cpp:408] conv5a -> conv5a
I1208 09:42:34.664743 22423 net.cpp:150] Setting up conv5a
I1208 09:42:34.664778 22423 net.cpp:157] Top shape: 50 512 2 7 7 (2508800)
I1208 09:42:34.664783 22423 net.cpp:165] Memory required for data: 10296115800
I1208 09:42:34.664791 22423 layer_factory.hpp:77] Creating layer relu5a
I1208 09:42:34.664804 22423 net.cpp:100] Creating Layer relu5a
I1208 09:42:34.664808 22423 net.cpp:434] relu5a <- conv5a
I1208 09:42:34.664815 22423 net.cpp:395] relu5a -> conv5a (in-place)
I1208 09:42:34.665055 22423 net.cpp:150] Setting up relu5a
I1208 09:42:34.665066 22423 net.cpp:157] Top shape: 50 512 2 7 7 (2508800)
I1208 09:42:34.665069 22423 net.cpp:165] Memory required for data: 10306151000
I1208 09:42:34.665073 22423 layer_factory.hpp:77] Creating layer conv5b
I1208 09:42:34.665086 22423 net.cpp:100] Creating Layer conv5b
I1208 09:42:34.665089 22423 net.cpp:434] conv5b <- conv5a
I1208 09:42:34.665096 22423 net.cpp:408] conv5b -> conv5b
I1208 09:42:34.838800 22423 net.cpp:150] Setting up conv5b
I1208 09:42:34.838834 22423 net.cpp:157] Top shape: 50 512 2 7 7 (2508800)
I1208 09:42:34.838838 22423 net.cpp:165] Memory required for data: 10316186200
I1208 09:42:34.838846 22423 layer_factory.hpp:77] Creating layer relu5b
I1208 09:42:34.838857 22423 net.cpp:100] Creating Layer relu5b
I1208 09:42:34.838862 22423 net.cpp:434] relu5b <- conv5b
I1208 09:42:34.838868 22423 net.cpp:395] relu5b -> conv5b (in-place)
I1208 09:42:34.838996 22423 net.cpp:150] Setting up relu5b
I1208 09:42:34.839005 22423 net.cpp:157] Top shape: 50 512 2 7 7 (2508800)
I1208 09:42:34.839009 22423 net.cpp:165] Memory required for data: 10326221400
I1208 09:42:34.839012 22423 layer_factory.hpp:77] Creating layer pool5
I1208 09:42:34.839020 22423 net.cpp:100] Creating Layer pool5
I1208 09:42:34.839023 22423 net.cpp:434] pool5 <- conv5b
I1208 09:42:34.839028 22423 net.cpp:408] pool5 -> pool5
I1208 09:42:34.839325 22423 net.cpp:150] Setting up pool5
I1208 09:42:34.839336 22423 net.cpp:157] Top shape: 50 512 1 4 4 (409600)
I1208 09:42:34.839340 22423 net.cpp:165] Memory required for data: 10327859800
I1208 09:42:34.839344 22423 layer_factory.hpp:77] Creating layer fc6
I1208 09:42:34.839360 22423 net.cpp:100] Creating Layer fc6
I1208 09:42:34.839364 22423 net.cpp:434] fc6 <- pool5
I1208 09:42:34.839370 22423 net.cpp:408] fc6 -> fc6
I1208 09:42:35.652323 22423 net.cpp:150] Setting up fc6
I1208 09:42:35.652355 22423 net.cpp:157] Top shape: 50 4096 (204800)
I1208 09:42:35.652359 22423 net.cpp:165] Memory required for data: 10328679000
I1208 09:42:35.652374 22423 layer_factory.hpp:77] Creating layer relu6
I1208 09:42:35.652384 22423 net.cpp:100] Creating Layer relu6
I1208 09:42:35.652389 22423 net.cpp:434] relu6 <- fc6
I1208 09:42:35.652395 22423 net.cpp:395] relu6 -> fc6 (in-place)
I1208 09:42:35.652572 22423 net.cpp:150] Setting up relu6
I1208 09:42:35.652581 22423 net.cpp:157] Top shape: 50 4096 (204800)
I1208 09:42:35.652585 22423 net.cpp:165] Memory required for data: 10329498200
I1208 09:42:35.652590 22423 layer_factory.hpp:77] Creating layer drop6
I1208 09:42:35.652596 22423 net.cpp:100] Creating Layer drop6
I1208 09:42:35.652600 22423 net.cpp:434] drop6 <- fc6
I1208 09:42:35.652604 22423 net.cpp:395] drop6 -> fc6 (in-place)
I1208 09:42:35.652631 22423 net.cpp:150] Setting up drop6
I1208 09:42:35.652637 22423 net.cpp:157] Top shape: 50 4096 (204800)
I1208 09:42:35.652639 22423 net.cpp:165] Memory required for data: 10330317400
I1208 09:42:35.652643 22423 layer_factory.hpp:77] Creating layer fc7
I1208 09:42:35.652650 22423 net.cpp:100] Creating Layer fc7
I1208 09:42:35.652673 22423 net.cpp:434] fc7 <- fc6
I1208 09:42:35.652678 22423 net.cpp:408] fc7 -> fc7
I1208 09:42:36.060250 22423 net.cpp:150] Setting up fc7
I1208 09:42:36.060284 22423 net.cpp:157] Top shape: 50 4096 (204800)
I1208 09:42:36.060288 22423 net.cpp:165] Memory required for data: 10331136600
I1208 09:42:36.060297 22423 layer_factory.hpp:77] Creating layer relu7
I1208 09:42:36.060307 22423 net.cpp:100] Creating Layer relu7
I1208 09:42:36.060312 22423 net.cpp:434] relu7 <- fc7
I1208 09:42:36.060317 22423 net.cpp:395] relu7 -> fc7 (in-place)
I1208 09:42:36.060668 22423 net.cpp:150] Setting up relu7
I1208 09:42:36.060679 22423 net.cpp:157] Top shape: 50 4096 (204800)
I1208 09:42:36.060694 22423 net.cpp:165] Memory required for data: 10331955800
I1208 09:42:36.060698 22423 layer_factory.hpp:77] Creating layer drop7
I1208 09:42:36.060716 22423 net.cpp:100] Creating Layer drop7
I1208 09:42:36.060720 22423 net.cpp:434] drop7 <- fc7
I1208 09:42:36.060725 22423 net.cpp:395] drop7 -> fc7 (in-place)
I1208 09:42:36.060751 22423 net.cpp:150] Setting up drop7
I1208 09:42:36.060756 22423 net.cpp:157] Top shape: 50 4096 (204800)
I1208 09:42:36.060760 22423 net.cpp:165] Memory required for data: 10332775000
I1208 09:42:36.060763 22423 layer_factory.hpp:77] Creating layer fc8
I1208 09:42:36.060770 22423 net.cpp:100] Creating Layer fc8
I1208 09:42:36.060773 22423 net.cpp:434] fc8 <- fc7
I1208 09:42:36.060780 22423 net.cpp:408] fc8 -> fc8
I1208 09:42:36.070927 22423 net.cpp:150] Setting up fc8
I1208 09:42:36.070950 22423 net.cpp:157] Top shape: 50 101 (5050)
I1208 09:42:36.070953 22423 net.cpp:165] Memory required for data: 10332795200
I1208 09:42:36.070960 22423 layer_factory.hpp:77] Creating layer fc8_fc8_0_split
I1208 09:42:36.070967 22423 net.cpp:100] Creating Layer fc8_fc8_0_split
I1208 09:42:36.070971 22423 net.cpp:434] fc8_fc8_0_split <- fc8
I1208 09:42:36.070976 22423 net.cpp:408] fc8_fc8_0_split -> fc8_fc8_0_split_0
I1208 09:42:36.070983 22423 net.cpp:408] fc8_fc8_0_split -> fc8_fc8_0_split_1
I1208 09:42:36.071013 22423 net.cpp:150] Setting up fc8_fc8_0_split
I1208 09:42:36.071017 22423 net.cpp:157] Top shape: 50 101 (5050)
I1208 09:42:36.071022 22423 net.cpp:157] Top shape: 50 101 (5050)
I1208 09:42:36.071025 22423 net.cpp:165] Memory required for data: 10332835600
I1208 09:42:36.071028 22423 layer_factory.hpp:77] Creating layer prob
I1208 09:42:36.071034 22423 net.cpp:100] Creating Layer prob
I1208 09:42:36.071038 22423 net.cpp:434] prob <- fc8_fc8_0_split_0
I1208 09:42:36.071043 22423 net.cpp:408] prob -> prob
I1208 09:42:36.071310 22423 net.cpp:150] Setting up prob
I1208 09:42:36.071321 22423 net.cpp:157] Top shape: 50 101 (5050)
I1208 09:42:36.071326 22423 net.cpp:165] Memory required for data: 10332855800
I1208 09:42:36.071329 22423 layer_factory.hpp:77] Creating layer accuracy
I1208 09:42:36.071339 22423 net.cpp:100] Creating Layer accuracy
I1208 09:42:36.071343 22423 net.cpp:434] accuracy <- prob
I1208 09:42:36.071348 22423 net.cpp:434] accuracy <- label_data_1_split_0
I1208 09:42:36.071353 22423 net.cpp:408] accuracy -> accuracy/top-1
…
